cifar_net.pth (torch, 251401 bytes, 10 tensors)

conv1.weight f4 [6, 3, 5, 5]
0.10474554 0.16061397 0.10564328 0.15526727 0.133943 0.4083101 0.49028727 0.5177268
0.44039643 0.22203948 0.17830187 0.3156431 0.40043163 0.41696912 0.1811213 -0.30749795
-0.27369577 -0.1790257 -0.06124185 -0.015298585 -0.2882763 -0.3191933 -0.23036638 -0.3573418
-0.27828896 -0.32572415 -0.319604 -0.32958612 -0.06887923 -0.13487072 -0.16367762 0.0662555
-0.049495395 -0.078522705 -0.1809486 0.0025125446 0.103370145 0.02872163 -0.11864574 0.051870607
-0.22486447 -0.37410134 -0.26751426 -0.30055457 -0.11664978 0.00863668 -0.22894867 -0.28135434
-0.17601117 0.035995714 -0.10558861 -0.22439432 -0.108693175 -0.03505203 0.088219024 0.118958965
0.0020271558 -0.040259697 -0.054446034 0.015848255 0.2057422 0.20468116 0.12157405 0.05509708
0.13444524 -0.07688819 0.036802843 -0.1222803 -0.1605756 0.123405784 0.14944151 0.30135098
0.04598955 0.08741322 0.15939182 -0.095367216 -0.17982112 -0.050659858 -0.044598587 -0.20080534
-0.21066853 -0.16851804 -0.15042418 -0.113763206 -0.029774148 -0.2455489 -0.2134196 -0.26480895
-0.12591378 -0.12621816 -0.3000235 -0.038762055 -0.24864806 -0.1535935 -0.05442188 -0.15040764
-0.16871631 -0.17814198 -0.08309792 -0.063919656 -0.041370798 0.058269214 -0.056906942 0.09348297
0.05045971 -0.0155508295 0.02506767 -0.04127547 0.033191275 -0.07418952 -0.016378585 0.019053746
-0.016715769 0.04673053 0.023737835 -0.021129813 -0.0646557 0.07345564 -0.05424249 -0.049749233
-0.1306195 0.0172264 -0.056901272 -0.006116535 -0.03130466 0.11361396 0.1705851 0.24532168
0.12501086 0.19899483 0.124075204 0.24640967 0.26475823 0.22396196 0.10885907 0.20626527
0.17937191 0.3432135 0.29184482 0.23200902 0.17673692 0.13298756 0.22856507 0.28332144
0.111597516 -0.047129728 0.07534185 0.18275739 0.2318812 0.053133592 0.15323786 0.18506475
0.05920441 -0.0403476 -0.0911871 0.20977457 0.16848196 0.23359878 0.055826552 -0.030227728
0.17212069 0.13190027 0.12806363 0.0661424 0.0037422176 0.024667263 0.11878514 0.10448624
-0.032532718 0.092964314 0.051564243 0.03195144 0.041149814 0.03602177 0.06815553 0.11318292
0.1362153 -0.060600836 -0.16975756 -0.25879797 -0.018526042 0.090074904 0.032624573 -0.097350724
-0.21387115 0.11841711 0.1591032 -0.055116866 -0.08068088 -0.18527003 -0.015622611 -0.06630385
0.031527746 -0.0015397501 -0.114253 -0.04289411 -0.013922712 0.09114728 -0.14682885 -0.19857332
0.079804756 0.22096132 0.24394578 0.07143067 -0.15279485 0.06938946 0.22091939 0.09996916
-0.10699299 -0.07764405 -0.05290387 0.10073654 0.22177036 -0.07949054 -0.21610244 0.013426293
0.10372176 0.03300958 -0.043505974 -0.20091861 -0.1353271 0.0522094 -0.045080014 0.084464066
0.007111344 -0.101416685 -0.06996216 -0.011476618 -0.1335603 -0.1272754 -0.010901438 0.13791953
-0.27748492 -0.015703155 0.08172531 0.16162634 0.031024233 -0.3367111 0.14061438 0.1518568
0.054230087 -0.11508828 0.20884517 0.18181095 -0.22263297 -0.20614931 -0.03453618 0.15094191
0.17472632 -0.32445633 0.08082328 0.109836005 0.25757 -0.025594544 0.050370082 0.11201158
00000000: d484 d63d fd77 243e 815b d83d 62fe 1e3e
00000010: 5b28 093e 050e d13e ef06 fb3e be89 043f
00000020: a47b e13e 515e 633e c494 363e f99b a13e
00000030: 6005 cd3e fa7c d53e dd77 393e 5f70 9dbe
00000040: da21 8cbe 8352 37be bcd8 7abd eba6 7abc
00000050: f498 93be 4e6d a3be 2ae5 6bbe 81f5 b6be
00000060: e47b 8ebe 51c5 a6be 23a3 a3be 83bf a8be
00000070: 8e10 8dbd 8d1b 0abe 1b9b 27be f7b0 873d
00000080: afbb 4abd 83d0 a0bd 974a 39be 81a9 243b
00000090: bab3 d33d a049 eb3c 8afc f2bd 4676 543d
000000a0: df42 66be 368a bfbe a1f7 88be 4ae2 99be
000000b0: 14e6 eebd dd80 0d3c 8571 6abe ad0d 90be
000000c0: 463c 34be 3e70 133d d73e d8bd a0c7 65be
000000d0: 879a debd b892 0fbd 2dac b43d c2a0 f33d
000000e0: 08da 043b 5ae7 24bd ce02 5fbd 33d4 813c
000000f0: 15ae 523e f097 513e d1fb f83d 7aad 613d
00000100: 03ac 093e 8e77 9dbd 94be 163d 186e fabd
00000110: ee6d 24be 2cbc fc3d 3207 193e ad4a 9a3e
00000120: 8a5f 3c3d b405 b33d 9c37 233e e34f c3bd
00000130: 0723 38be b680 4fbd 02ad 36bd ea9f 4dbe
00000140: 7eb9 57be fe8f 2cbe cc08 1abe affc e8bd
00000150: eae8 f3bc 2c71 7bbe ab8a 5abe 0a95 87be
00000160: 8bef 00be 553f 01be ae9c 99be f6c4 1ebd
00000170: 999d 7ebe 9d47 1dbe 7ae9 5ebd 7604 1abe
00000180: f8c3 2cbe da6a 36be 3e2f aabd 4fe8 82bd
00000190: 6d74 29bd b3ab 6e3d 4117 69bd 0074 bf3d
000001a0: d7ae 4e3d e8c8 7ebc b75a cd3c 7810 29bd
000001b0: 93f3 073d adf0 97bd 622c 86bc 9a16 9c3c
000001c0: 82ef 88bc 8368 3f3d d975 c23c 6e18 adbc
000001d0: 356a 84bd e96f 963d 602d 5ebd dac5 4bbd
000001e0: 1ec1 05be 611e 8d3c 4f11 69bd 376d c8bb
000001f0: 5139 00bd 70ae e83d dcad 2e3e 9b35 7b3e
00000200: d902 003e 4dc5 4b3e 241b fe3d d152 7c3e
00000210: 648e 873e 4956 653e 81f1 de3d 3437 533e
00000220: 45ad 373e aeb9 af3e af6c 953e c693 6d3e
00000230: 86fa 343e e42d 083e f60c 6a3e 820f 913e
00000240: 3d8d e43d 1a0b 41bd d44c 9a3d c124 3b3e
00000250: 4472 6d3e 9ca2 593d 63ea 1c3e 9d81 3d3e
00000260: 5380 723d 8643 25bd 4dc0 babd 25cf 563e
00000270: 8986 2c3e 8534 6f3e 62aa 643d 24a0 f7bc
00000280: 6840 303e dd10 073e 1d23 033e ab75 873d
00000290: fe3f 753b 0013 ca3c a045 f33d e2fc d53d
000002a0: 0741 05bd 1364 be3d 0735 533d 83df 023d
000002b0: b58c 283d 908b 133d 2095 8b3d 72cc e73d
000002c0: 067c 0b3e 9538 78bd edd4 2dbe 2b81 84be
000002d0: edc3 97bc 3179 b83d 58a1 053d d15f c7bd
000002e0: 0a01 5bbe ab84 f23d f3eb 223e 39c2 61bd
000002f0: 043c a5bd 6db7 3dbe fbf5 7fbc 50ca 87bd
00000300: 3d23 013d 71d1 c9ba 7afd e9bd bcb1 2fbd
00000310: 161c 64bc 6dab ba3d 4d5a 16be ce56 4bbe
00000320: ad70 a33d af43 623e eccc 793e 3e4a 923d
00000330: 4176 1cbe 101c 8e3d b138 623e a2bc cc3d
00000340: 241f dbbd d803 9fbd bab1 58bd f64e ce3d
00000350: c517 633e f0cb a2bd f549 5dbe f4f9 5b3c
00000360: 136c d43d 0e35 073d 5233 32bd 9cbd 4dbe
00000370: 3093 0abe 86d9 553d d2a5 38bd 7ffb ac3d
00000380: 4706 e93b 8db3 cfbd 5248 8fbd 6d08 3cbc
00000390: 08c4 08be 7c54 02be f29b 32bc c73a 0d3e
000003a0: 8112 8ebe e7a3 80bc 995f a73d 6081 253e
000003b0: 8826 fe3c 6665 acbe 37fd 0f3e 5980 1b3e
000003c0: 5e20 5e3d 67b3 ebbd 82db 553e a62c 3a3e
000003d0: e6f9 63be ce18 53be cf75 0dbd 8490 1a3e
000003e0: 75eb 323e 241f a6be ad86 a53d b3f1 e03d
000003f0: 37e0 833e a6ab d1bc dc50 4e3d 5466 e53d

conv1.bias f4 [6]
-0.6448355 0.41538465 -0.068602465 0.14226109 -0.2978696 -0.10523048
00000000: f013 25bf 4cad d43e 737f 8cbd e4ac 113e
00000010: 5d82 98be 1483 d7bd

conv2.weight f4 [16, 6, 5, 5]
0.061810777 -0.10696482 -0.04960047 -0.05095287 -0.0010375003 -0.002350559 0.005330719 -0.060381286
-0.096121624 0.06563574 -0.003994245 0.02632962 -0.029216187 -0.07942809 0.0012542141 -0.004456209
-0.10197304 -0.073099226 -0.09984857 0.04542139 -0.120455876 -0.03781686 -0.06713124 -0.0057139443
-0.052654095 0.19780625 -0.0023273749 -0.128194 -0.12727281 -0.07100763 0.097706005 0.052680872
-0.030598737 -0.22654936 -0.16431884 0.1675272 0.041345045 0.0155420415 -0.20258239 -0.26097697
0.06866005 0.07624017 0.075912416 -0.08313196 -0.25541043 0.2485347 0.17086154 0.10969653
-0.056801755 -0.14660048 0.08751749 0.07025529 -0.011452304 -0.11466713 -0.05262706 -0.09572017
-0.000301486 -0.006482431 0.0055009956 -0.013787016 -0.021369427 -0.018908817 0.122197196 0.13270445
-0.031607874 -0.005915252 -0.046406083 0.11152573 0.08027161 -0.014321434 0.10317367 0.018743992
0.011670046 0.10270184 0.12516393 -0.053027462 0.042688962 0.06669344 -0.100563385 -0.023289518
-0.07408126 -0.057455625 0.067274824 -0.06928285 -0.05698715 -0.031889703 0.029205479 0.013863372
-0.0055749426 0.014601382 -0.034429625 0.017901866 -0.046014976 -0.035262547 -0.07071953 0.0028855733
0.0522609 -0.047086746 -0.028651249 0.058314428 -0.011059987 -0.14320968 -0.014873742 0.05534516
0.0522261 0.06916285 -0.00019709153 -0.07229906 -0.09588474 0.10112465 0.11415246 0.08403526
0.011057525 -0.12376148 -0.0055071563 0.0715471 0.028981807 0.011053371 -0.06651594 -0.023187483
0.097418346 0.010780612 0.035218302 0.08005243 -0.08816973 -0.11698339 -0.119907476 -0.079269655
0.19126654 0.10140966 0.057007216 -0.085517764 -0.13577822 -0.15645476 0.08933584 0.012322185
0.14921576 0.061363325 -0.071941875 -0.12659587 -0.04880871 0.033967577 0.14957109 -0.03687952
-0.068932995 -0.11507042 -0.084375136 0.032316525 0.13575116 0.07167743 -0.063144065 -0.064013705
0.04557935 0.061375443 -0.035413098 -0.0429904 0.03305805 -0.016445082 -0.014870345 0.06423209
-0.035857372 -0.08443236 -0.057351165 0.03595799 -0.05872368 -0.12423865 -0.12188529 -0.08729577
-0.09316845 -0.006201421 -0.06108766 -0.15481013 -0.1104162 -0.12296721 -0.08005424 -0.22234404
-0.101799816 -0.018914385 0.13346305 0.07437389 -0.10516845 -0.09546781 -0.06816346 0.13215868
0.18315499 -0.1988912 -0.1292874 0.063627884 0.15642385 0.20074783 -0.16600998 -0.04180465
-0.040267453 0.14786759 0.1538658 -0.09533275 -0.10213705 -0.023692071 0.08688363 0.107950106
0.27461058 0.103671014 0.06044824 -0.032402493 0.04517094 0.15284716 0.095561385 -0.04063854
-0.075354844 0.029805126 0.10622839 0.019792521 -0.057381507 0.015267018 -0.006529221 0.06329437
0.10496181 -0.15705195 -0.06331353 -0.0011616912 0.08225887 0.004738748 -0.05284726 -0.052275218
-0.0056729303 0.06287034 0.07745962 -0.0064361086 -0.025821798 -0.13977169 0.11923541 -0.023065126
-0.120826095 -0.010280982 0.045899246 0.043658063 -0.0047428044 -0.13632284 0.026756663 0.028310325
0.021887833 0.08302887 -0.0972362 -0.07762517 0.00405049 0.022125883 0.064504795 -0.0295201
0.011697933 0.01785216 -0.10251812 -0.1688738 0.0057917098 0.06496424 0.087844126 -0.14434706
00000000: 4c2d 7d3d 5f10 dbbd dd29 4bbd f5b3 50bd
00000010: bcfc 87ba d60b 1abb 50ad ae3b 5e52 77bd
00000020: 6adb c4bd 086c 863d 28e2 82bb 37b1 d73c
00000030: c956 efbc 32ab a2bd 7164 a43a 6405 92bb
00000040: 3ed7 d0bd 0cb5 95bd 687d ccbd c80b 3a3d
00000050: 92b1 f6bd dae5 1abd 1b7c 89bd 0a3c bbbb
00000060: d2ab 57bd b98d 4a3e df86 18bb 4a45 03be
00000070: ce53 02be 736c 91bd 161a c83d e6c7 573d
00000080: 34aa fabc 8efc 67be 3343 28be 408c 2b3e
00000090: 6c59 293d 0ca4 7e3c c271 4fbe c69e 85be
000000a0: a49d 8c3d ce23 9c3d f877 9b3d 1741 aabd
000000b0: 28c5 82be e17f 7e3e 54f6 2e3e 93a8 e03d
000000c0: f5a8 68bd 701e 16be 5f3c b33d 01e2 8f3d
000000d0: 72a2 3bbc 9ad6 eabd 798f 57bd f008 c4bd
000000e0: c410 9eb9 936a d4bb b241 b43b f0e2 61bc
000000f0: f00e afbc aae6 9abc 8642 fa3d ade3 073e
00000100: 4277 01bd bbd4 c1bb 4e14 3ebd 9a67 e43d
00000110: 7165 a43d 73a4 6abc b84c d33d 008d 993c
00000120: b833 3f3c 5855 d23d f92a 003e 5333 59bd
00000130: 9fda 2e3d 9296 883d 2df4 cdbd a9c9 bebc
00000140: eab7 97bd 9756 6bbd 62c7 893d 2be4 8dbd
00000150: 5c6b 69bd c79e 02bd 5440 ef3c 3223 633c
00000160: 02ae b6bb a33a 6f3c 1406 0dbd efa6 923c
00000170: 337a 3cbd 766f 10bd 67d5 90bd e31b 3d3b
00000180: 870f 563d 08de 40bd 06b6 eabc 1cdb 6e3d
00000190: f334 35bc 8fa5 12be ffb0 73bc 9bb1 623d
000001a0: 09eb 553d 41a5 8d3d 5baa 4eb9 8811 94bd
000001b0: 385f c4bd 711a cf3d c4c8 e93d ae1a ac3d
000001c0: 9f2a 353c a976 fdbd 6075 b4bb 4987 923d
000001d0: 416b ed3c 3319 353c 8239 88bd adf3 bdbc
000001e0: 4583 c73d 2aa1 303c 1141 103d 87f2 a33d
000001f0: 5592 b4bd fd94 efbd 0d92 f5bd 2158 a2bd
00000200: 60db 433e deaf cf3d 6680 693d f023 afbd
00000210: 7209 0bbe ad35 20be b5f5 b63d fde2 493c
00000220: 04cc 183e 1c58 7b3d 4356 93bd 59a2 01be
00000230: a4eb 47bd 9621 0b3d 2a29 193e fb0e 17bd
00000240: be2c 8dbd 0aaa ebbd dfcc acbd 555e 043d
00000250: 5a02 0b3e 9ecb 923d ad51 81bd 9e19 83bd
00000260: 6ab1 3a3d d164 7b3d 530d 11bd b416 30bd
00000270: e167 073d d6b7 86bc bfa2 73bc 1d8c 833d
00000280: 2edf 12bd e0ea acbd 0ee9 6abd af48 133d
00000290: 3e88 70bd d570 febd ff9e f9bd 20c8 b2bd
000002a0: 1acf bebd 4a35 cbbb 0e37 7abd 8c86 1ebe
000002b0: e321 e2bd 3cd6 fbbd 7af3 a3bd 28ae 63be
000002c0: 6c7c d0bd 57f2 9abc 8aaa 083e 5751 983d
000002d0: 8e62 d7bd a184 c3bd 4999 8bbd 9b54 073e
000002e0: fb8c 3b3e 22aa 4bbe eb63 04be 564f 823d
000002f0: 932d 203e d790 4d3e 85fe 29be 5a3b 2bbd
00000300: 7cef 24bd 9a6a 173e ff8e 1d3e d13d c3bd
00000310: 3b2d d1bd e015 c2bc 0bf0 b13d f214 dd3d
00000320: c299 8c3e 7851 d43d 9398 773d 7ab8 04bd
00000330: 2a05 393d f783 1c3e b0b5 c33d 9974 26bd
00000340: a453 9abd e129 f43c 458e d93d ed23 a23c
00000350: df08 6bbd 8422 7a3c 13f3 d5bb 7ba0 813d
00000360: 38f6 d63d 3ad2 20be 86aa 81bd e343 98ba
00000370: 5777 a83d 8047 9b3b 5e76 58bd 8a1e 56bd
00000380: fde3 b9bb 2ac2 803d 26a3 9e3d fee5 d2bb
00000390: 3c88 d3bc 4f20 0fbe b231 f43d 13f3 bcbc
000003a0: ac73 f7bd 9071 28bc d900 3c3d ccd2 323d
000003b0: 8769 9bbb 3798 0bbe ca30 db3c 0eeb e73c
000003c0: 1d4e b33c 0a0b aa3d c623 c7bd f2f9 9ebd
000003d0: f9b9 843b 5741 b53c 171b 843d 23d4 f1bc
000003e0: b0a8 3f3c b13e 923c 05f5 d1bd 41ed 2cbe
000003f0: 62c8 bd3b f90b 853d 9fe7 b33d b7cf 13be

conv2.bias f4 [16]
-0.11392662 0.019427218 0.7425074 -0.3354501 -0.23974876 -0.1696136 0.55916476 -0.13085811
0.4116331 -0.08642508 -0.041321337 -0.60285366 0.04541162 0.57751274 0.023825511 -0.2196226
00000000: 5c52 e9bd d425 9f3c f714 3e3f 1ec0 abbe
00000010: b380 75be 30af 2dbe 6c25 0f3f abff 05be
00000020: 93c1 d23e a2ff b0bd 9040 29bd 9e54 1abf
00000030: 8901 3a3d e0d7 133f b82d c33c bfe4 60be

fc1.weight f4 [120, 400]
0.059843905 -0.029556675 -0.019576348 -0.008161667 0.0030114576 0.012453611 0.068867974 0.027908903
-0.0024118975 0.05834283 -0.06501516 -0.0114335455 -0.03113811 -0.033567633 -0.0011968823 -0.030833727
-0.072880305 0.0018451723 -0.005756576 0.029518457 -0.007343994 -0.064727545 0.02356447 0.0019320593
0.010300543 0.013741325 0.06631575 0.052531105 -0.034290787 0.039951578 -0.04323786 0.07184666
0.105909444 0.09124998 0.09412165 0.020456184 -0.003953439 0.03914015 0.011280981 -0.008343378
-0.030220095 0.020807922 0.03525795 -0.052504126 0.06521768 -0.047223117 0.072927594 -0.008679532
-0.06276095 0.054274812 -0.057202138 -0.013736816 0.0005822874 0.020103035 -0.027764887 -0.022131989
0.016915074 0.03944446 0.005779916 -0.011365411 -0.021330072 -0.027073715 0.03765701 -0.05448245
-0.030296424 -0.039969523 -0.007758645 -0.025677038 -0.0003915763 -0.04071807 -0.038059827 -0.058335576
-0.0155607965 -0.019313922 0.034292262 -0.039430138 0.03158418 -0.032237034 0.028744983 0.012084494
-0.018080102 -0.023916116 0.043770563 0.08948332 0.0032993555 -0.074995495 0.05590303 0.12416306
0.1259049 0.00028445898 0.017228438 0.027874244 0.022471922 0.08458706 -0.0025885573 -0.026755244
0.04563909 0.037993222 -0.013393412 0.030198686 0.02009978 0.012268943 0.061068885 -0.033257075
0.074318536 0.03579023 0.024723735 0.07793517 0.05568746 0.064629085 0.019552773 0.031559724
0.052511442 -0.006729505 -0.00074207096 0.018409159 0.047208328 -0.05834608 0.014053736 0.014125266
0.014714816 0.024848294 -0.021194141 -0.015238019 -0.020761695 0.03285124 -0.025351562 0.08157058
0.008192847 -0.002549408 0.025878266 0.02312177 0.012368287 0.07143026 -0.021809746 0.0418895
-0.043725956 0.00926358 0.056022152 -0.04440789 0.010479209 0.009508847 -0.0005755309 0.0033362
-0.09973689 0.059046894 0.033472862 0.066819295 0.060110174 -0.04859637 -0.031491585 -0.040855505
0.045736387 -0.042258866 -0.025245171 -0.09516771 -0.016557425 -0.03743513 0.0012838115 0.016070887
-0.04109057 -0.06927545 -0.049563274 0.08330946 0.019326627 0.00077345513 -0.013167006 -0.05596055
0.09212427 0.079762034 -0.021917151 -0.011839878 -0.025443839 0.052262403 0.0031293635 -0.017555524
-0.019945119 0.07655518 0.10299007 0.03569845 0.0021562912 0.0004342452 -0.0549325 0.010533952
0.014615579 0.022739168 0.02398346 -0.05704356 -0.033832897 -0.017851084 0.01155324 -0.06932564
-0.03434617 -0.035890277 -0.025510428 0.07708118 0.024452435 0.08570418 0.0019852598 0.07966808
-0.039077405 -0.023171753 -0.04004647 -0.08858731 -0.044612832 -0.054809127 -0.02147707 -0.022873241
-0.029767632 -0.05250648 -0.06555262 -0.039699297 -0.053251002 -0.09311493 -0.07435117 0.008054101
-0.09534186 -0.011128397 -0.11087365 -0.031721257 -0.018947463 -0.0584666 -0.0599527 -0.089108534
-0.048182465 0.003065407 -0.015113387 0.013478351 -0.08409017 -0.030035753 -0.0571417 -0.0522627
-0.09566527 -0.021718858 -0.03102786 -0.030414531 -0.019071706 -0.088681445 -0.05686883 -0.05069322
0.05071176 0.03931701 -0.050779134 -0.030545997 0.0068968204 0.0064148987 0.044833254 -0.002131276
-0.016346615 0.0054792035 0.038133312 -0.046375427 0.011051159 -0.0042037494 0.022714254 0.045927987
00000000: e21e 753d d720 f2bc 945e a0bc 83b8 05bc
00000010: e05b 453b 3b0a 4c3c a70a 8d3d 36a1 e43c
00000020: ed10 1ebb e4f8 6e3d ab26 85bd c453 3bbc
00000030: 5a15 ffbc 377e 09bd b5e0 9cba 0397 fcbc
00000040: 4542 95bd b5d9 f13a a9a1 bcbb b1d0 f13c
00000050: e3a5 f0bb e08f 84bd 460a c13c 273d fd3a
00000060: 9cc3 283c 4b23 613c 8dd0 873d db2a 573d
00000070: 7f74 0cbd 44a4 233d 2f1a 31bd 5724 933d
00000080: 0de7 d83d 45e1 ba3d dac2 c03d ba93 a73c
00000090: da8b 81bb 6c51 203d ddd3 383c aab2 08bc
000000a0: 2290 f7bc 6075 aa3c a46a 103d 910e 57bd
000000b0: d990 853d 076d 41bd 105b 953d 9934 0ebc
000000c0: d088 80bd 444f 5e3d ca4c 6abd 6210 61bc
000000d0: a5a4 183a 1faf a43c 3073 e3bc 254e b5bc
000000e0: 7b91 8a3c 8490 213d 7365 bd3b fd35 3abc
000000f0: 67bc aebc b2c9 ddbc 3d3e 1a3d fd28 5fbd
00000100: 3530 f8bc 15b7 23bd 3b3c febb a758 d2bc
00000110: 7b4c cdb9 fec7 26bd 9fe4 1bbd 49f1 6ebd
00000120: b6f2 7ebc 3b38 9ebc 0b76 0c3d 7f81 21bd
00000130: 6a5e 013d fb0a 04bd 997a eb3c 0bfe 453c
00000140: b91c 94bc bbeb c3bc c348 333d 0843 b73d
00000150: 003a 583b 3d97 99bd 93fa 643d 3449 fe3d
00000160: 37ed 003e 7023 9539 a722 8d3c 8758 e43c
00000170: 0917 b83c fb3b ad3d c9a4 29bb d02d dbbc
00000180: 0ef0 3a3d c89e 1b3d 0b70 5bbc 3c63 f73c
00000190: 4ba8 a43c ad03 493c 5e23 7a3d 9238 08bd
000001a0: 5134 983d c798 123d 6e89 ca3c 799c 9f3d
000001b0: 8918 643d 415c 843d 232d a03c c544 013d
000001c0: 3d16 573d 2e83 dcbb 8a87 42ba cece 963c
000001d0: 855d 413d 4dfc 6ebd a441 663c a96d 673c
000001e0: 6916 713c a68e cb3c 569f adbc e2a8 79bc
000001f0: 6e14 aabc 068f 063d 14ae cfbc 7a0e a73d
00000200: 4a3b 063c f813 27bb a8fe d33c de69 bd3c
00000210: 5ba4 4a3c 074a 923d 5aaa b2bc 5394 2b3d
00000220: fd19 33bd 45c6 173c 7c77 653d 0ce5 35bd
00000230: fdb0 2b3c ffca 1b3c 3adf 16ba 26a4 5a3b
00000240: db42 ccbd 28db 713d d71a 093d 8ed8 883d
00000250: 1636 763d fd0c 47bd 52fd 00bd 1a58 27bd
00000260: 1456 3b3d a217 2dbd f6ce cebc 4ae7 c2bd
00000270: 70a3 87bc 9455 19bd 9145 a83a 18a7 833c
00000280: 964e 28bd 4ae0 8dbd dc02 4bbd 269e aa3d
00000290: e052 9e3c b2c1 4a3a 6dba 57bc e436 65bd
000002a0: a6ab bc3d 475a a33d 998b b3bc 0cfc 41bc
000002b0: 996f d0bc 1a11 563d 0216 4d3b 9ad0 8fbc
000002c0: f263 a3bc f6c8 9c3d 75ec d23d 8a38 123d
000002d0: 9050 0d3b 67ab e339 e700 61bd 9996 2c3c
000002e0: 2e76 6f3c 7e47 ba3c f678 c43c 82a6 69bd
000002f0: 5d94 0abd 703c 92bc cd49 3d3c 9afa 8dbd
00000300: 92ae 0cbd af01 13bd 3ffb d0bc bddc 9d3d
00000310: 7950 c83c ac85 af3d 221b 023b 0529 a33d
00000320: a10f 20bd b0d2 bdbc c407 24bd 436d b5bd
00000330: f2bb 36bd 897f 60bd aef0 afbc aa60 bbbc
00000340: 40db f3bc 0911 57bd 7440 86bd bb9b 22bd
00000350: b91d 5abd 0ab3 bebd 6d45 98bd 59f5 033c
00000360: 9842 c3bd e153 36bc b911 e3bd 26ee 01bd
00000370: b637 9bbc ac7a 6fbd f690 75bd 897e b6bd
00000380: fa5a 45bd ffe4 483b 249e 77bc 4dd4 5c3c
00000390: 7837 acbd 8a0d f6bc 6a0d 6abd 6a11 56bd
000003a0: 27ec c3bd bfeb b1bc 232e febc e527 f9bc
000003b0: 443c 9cbc 9e9e b5bd 4aef 68bd b2a3 4fbd
000003c0: 22b7 4f3d e00a 213d c8fd 4fbd 993b fabc
000003d0: b9fe e13b 1234 d23b 13a3 373d e1ac 0bbb
000003e0: 56e9 85bc e48a b33b ad31 1c3d 29f4 3dbd
000003f0: ec0f 353c 9bbf 89bb 3e13 ba3c fc1e 3c3d

fc1.bias f4 [120]
-0.0763928 -0.025934793 -0.007978909 0.25482062 -0.041141104 0.039446466 -0.033360258 0.012637953
-0.042886812 0.19849244 -0.026715877 0.051367085 -0.043780886 0.0069712726 0.025381 0.17787349
0.042682815 -0.017765349 -0.012888652 -0.11210497 -0.042940583 0.12139671 -0.004180449 -0.026842937
0.08793549 0.0581437 -0.15254511 0.090319075 0.008884901 -0.0706234 0.036607463 -0.064468965
-0.03757994 -0.002372758 -0.07930399 0.015876817 0.13990456 0.032195676 -0.02442306 0.15899143
-0.06185252 0.007948772 0.045538735 0.046518665 0.027397739 -0.081115685 -0.052200355 0.12817818
-0.06409779 0.057308234 0.04503442 -0.041586753 0.021430364 0.045739416 0.16137393 -0.049865726
-0.025846606 0.1386147 -0.023393996 -0.0066358037 -0.014570324 -0.08104271 -0.031096559 -0.057872586
-0.043267358 0.031376984 0.06204097 -0.11028515 0.18649071 0.15030693 0.03548413 -0.092771314
-0.0069196564 -0.059670877 0.08337925 0.00900503 0.07511546 0.09098315 -0.05244492 -0.041981533
-0.04768817 0.027372774 -0.008600262 -0.05842184 0.059785265 0.03257991 -0.004812768 0.061774597
0.06307258 0.027484931 0.054195214 -0.010693384 -0.0069657387 0.057053115 0.099681236 0.07918585
-0.047319815 0.11040992 -0.059826117 -0.062072583 0.03217163 -0.050781474 -0.050195575 -0.0019705745
0.042010352 -0.020212492 0.17720564 0.013163379 0.088224106 -0.024693776 -0.0023979936 -0.0049138116
-0.044044554 0.25327617 0.12573744 -0.06656413 0.07083538 -0.003228072 0.0636857 -0.022285018
00000000: d473 9cbd 3475 d4bc f8b9 02bc d977 823e
00000010: 9383 28bd 9e92 213d c4a4 08bd 6b0f 4f3c
00000020: 15aa 2fbd 9a41 4b3e 41db dabc 4b66 523d
00000030: 9653 33bd 466f e43b d1eb cf3c 7824 363e
00000040: 2dd4 2e3d a388 91bc ed2a 53bc 4a97 e5bd
00000050: 77e2 2fbd d79e f83d 26fc 88bb b8e5 dbbc
00000060: 8617 b43d 1728 6e3d c934 1cbe 35f9 b83d
00000070: fa91 113c 00a3 90bd b5f1 153d 4e08 84bd
00000080: 6ced 19bd 4680 1bbb 216a a2bd 1910 823c
00000090: 2443 0f3e 9ddf 033d de12 c8bc a6ce 223e
000000a0: 1159 7dbd 913b 023c d386 3a3d 5b8a 3e3d
000000b0: 3971 e03c fb1f a6bd 0ad0 55bd 2441 033e
000000c0: b445 83bd 0abc 6a3d 0376 383d df56 2abd
000000d0: bb8e af3c 4159 3b3d 353f 253e 0140 4cbd
000000e0: 43bc d3bc 03f1 0d3e c4a4 bfbc 2871 d9bb
000000f0: 5eb8 6ebc b8f9 a5bd 36be febc ce0b 6dbd
00000100: 1d39 31bd 2785 003d ac1e 7e3d 2edd e1bd
00000110: 6cf7 3e3e 0fea 193e cf57 113d e3fe bdbd
00000120: 49be e2bb 7369 74bd bdc2 aa3d d589 133c
00000130: 22d6 993d 6055 ba3d 7cd0 56bd d4f4 2bbd
00000140: ac54 43bd de3c e03c 1de8 0cbc bd4b 6fbd
00000150: 65e1 743d 8372 053d 6db4 9dbb 5c07 7d3d
00000160: 322c 813d 1428 e13c cdfb 5d3d 4e33 2fbc
00000170: da40 e4bb 87b0 693d ad25 cc3d 312c a23d
00000180: 6cd2 41bd 991e e23d 3b0c 75bd d23f 7ebd
00000190: 66c6 033d 3c00 50bd e099 4dbd c124 01bb
000001a0: 0c13 2c3d ab94 a5bc 6575 353e 37ab 573c
000001b0: d7ae b43d 9a4a cabc a827 1dbb 0a04 a1bb
000001c0: 1068 34bd 6aad 813e 51c1 003e c652 88bd
000001d0: 2412 913d 108e 53bb a66d 823d 128f b6bc

fc2.weight f4 [84, 120]
-0.048758455 -0.05615417 -0.07562246 0.009408207 0.0133204125 -0.12614633 -0.07359015 -0.030215427
-0.1775284 0.12413786 -0.015376141 -0.04482662 0.027270988 -0.09223777 -0.019929236 0.048846655
0.013299394 -0.04248332 0.00056021527 0.051719923 -0.06466268 -0.003285463 -0.030333728 -0.07943186
0.10613508 -0.0965623 -0.06002438 -0.07002464 -0.08709887 -0.07539471 0.035809573 0.04387356
-0.0032656745 0.043998647 -0.014816696 -0.06955668 0.008835204 0.03168208 0.010057612 0.02781529
0.050374735 0.024601676 0.1499566 -0.04607979 -0.040849473 -0.0034488717 -0.03552794 0.1382524
-0.02036754 0.017033244 -0.028038751 -0.07737896 0.0023720332 0.05059638 -0.0018623526 -0.046626065
-0.023003124 0.116753295 0.03869119 0.12998103 -0.042297374 -0.045918856 -0.11426702 -0.037455965
0.08148192 -0.05490591 0.07206089 -0.11333955 -0.02521798 0.07723802 -0.074410595 -0.08051876
-0.109583385 0.057204913 -0.09088696 0.055618584 0.017209463 0.03226621 -0.1458696 -0.030056894
0.008197274 -0.034378517 -0.07306203 -0.10095325 0.08255771 0.07104229 -0.012425954 0.03269835
0.038355287 -0.034598924 0.029367091 0.105842106 0.09270226 0.046696715 -0.025308866 -0.019802425
-0.01684383 -0.008895407 -0.07432799 -0.049853988 -0.052352294 -0.066901244 -0.055526067 -0.10682498
0.028549891 -0.045526363 0.16416132 0.034168217 0.11336384 0.039736576 0.09729172 0.0076266383
0.07271238 -0.006157995 0.09850128 -0.027932988 -0.05433132 -0.035450563 0.053374097 -0.041601405
0.02654863 0.019931626 0.026712347 -0.033091854 0.055176985 0.011331446 -0.032936186 0.009245387
-0.12204439 -0.089209996 -0.08290755 -0.10171143 0.09574233 0.07096984 -0.0780699 0.019670116
-0.019218234 -0.030662587 0.090005495 0.123618774 0.0024156144 -0.15390168 0.016816057 0.052895844
-0.106551684 -0.11311147 0.10925459 -0.11371689 -0.011593479 -0.08409177 -0.052964006 0.007204579
0.05608866 0.069804125 0.1025306 0.13871668 -0.015855037 0.05351085 0.10191101 0.05591497
-0.022910515 -0.05767799 0.08436134 0.027573802 -0.02245133 0.015638202 -0.04845083 0.049114726
0.05033853 0.03520457 -0.050612673 0.004104715 0.026697455 -0.0007364531 -0.046926476 0.051613864
0.022006892 0.015922725 0.09924084 -0.0021068237 -0.056414377 -0.02857392 -0.07548518 0.051390085
0.01610704 0.011940858 -0.10160459 0.01577814 -0.09166032 0.11176521 -0.14750233 -0.005478391
-0.10172827 0.06029968 0.03614261 -0.025655871 0.08044725 -0.039149877 0.09444466 0.008201824
-5.9110953e-06 0.008162331 -0.11900732 -0.123429984 0.060929846 0.010740798 -0.11570438 0.084246576
0.006277324 -0.055098727 -0.049847636 0.072614506 0.046561535 0.07908269 0.065786004 -0.06687428
-0.05379009 -0.05299985 0.0070058876 0.10287709 0.07407758 0.024746308 0.085075885 -0.09439483
-0.005237779 -0.047361944 -0.03828161 -0.0856722 0.037503205 0.038348973 0.07428425 -0.12972392
0.0055184504 0.08270607 0.09612056 -0.054421566 -0.0748269 -0.06288189 0.08470365 0.046084
0.008299232 0.078249805 0.019871764 -0.034922015 -0.009588799 -0.042028967 0.03346588 -0.037747864
0.008866989 -0.112823464 -0.05011791 0.012042767 0.055030238 -0.06338247 -0.07061326 -0.0828285
00000000: f2b6 47bd ea01 66bd f3df 9abd e124 1a3c
00000010: dc3d 5a3c 812c 01be 6fb6 96bd 5886 f7bc
00000020: 01ca 35be fe3b fe3d 36ec 7bbc 1e9c 37bd
00000030: 6867 df3c 28e7 bcbd a342 a3bc 6e13 483d
00000040: b4e5 593c fd02 2ebd 69db 123a 45d8 533d
00000050: de6d 84bd ec50 57bb 707e f8bc 2cad a2bd
00000060: 595d d93d 75c2 c5bd 20dc 75bd 1469 8fbd
00000070: e460 b2bd 8b68 9abd 0fad 123d c3b4 333d
00000080: ed04 56bb ed37 343d bac1 72bc bc73 8ebd
00000090: 88c1 103c 12c5 013d afc8 243c e4dc e33c
000000a0: bd55 4e3d 7489 c93c 398e 193e 29be 3cbd
000000b0: c751 27bd 7706 62bb bf85 11bd 0a92 0d3e
000000c0: d4d9 a6bc 4d89 8b3c 86b1 e5bc dc78 9ebd
000000d0: 1d74 1b3b 263e 4f3d 2f1a f4ba f9fa 3ebd
000000e0: 0c71 bcbc 5a1c ef3d a77a 1e3d bf19 053e
000000f0: 0340 2dbd 6915 3cbd d404 eabd 6d6b 19bd
00000100: fedf a63d 05e5 60bd a994 933d 911e e8bd
00000110: f095 cebc f82e 9e3d 9564 98bd 05e7 a4bd
00000120: 416d e0bd b34f 6a3d f122 babd 50d0 633d
00000130: dcfa 8c3c 9329 043d d75e 15be e039 f6bc
00000140: dc4d 063c 7dd0 0cbd 8ca1 95bd 94c0 cebd
00000150: 0414 a93d 9f7e 913d 3b96 4bbc b4ee 053d
00000160: 6f1a 1d3d 9ab7 0dbd 4193 f03c bfc3 d83d
00000170: afda bd3d 0e45 3f3d 8a54 cfbc b238 a2bc
00000180: 12fc 89bc 0bbe 11bc 4639 98bd b233 4cbd
00000190: 5c6f 56bd 8503 89bd 4d6f 63bd 0ec7 dabd
000001a0: 76e1 e93c da79 3abd e819 283e f9f3 0b3d
000001b0: 4d2b e83d d2c2 223d e240 c73d e1e8 f93b
000001c0: 3aea 943d 02c9 c9bb 0abb c93d b9d3 e4bc
000001d0: 858a 5ebd 9c34 11bd cc9e 5a3d 3c66 2abd
000001e0: 837c d93c a647 a33c dad3 da3c 538b 07bd
000001f0: 4301 623d 87a7 393c 18e8 06bd f779 173c
00000200: 69f2 f9bd bbb3 b6bd 6fcb a9bd 154e d0bd
00000210: 8e14 c43d a358 913d 1de3 9fbd 3923 a13c
00000220: 8f6f 9dbc 1b30 fbbc cd54 b83d d72b fd3d
00000230: 494f 1e3b 6798 1dbe d4c1 893c 50a9 583d
00000240: c537 dabd fda6 e7bd dfc0 df3d 67e4 e8bd
00000250: 93f2 3dbc 4e38 acbd c9f0 58bd 6414 ec3b
00000260: 39bd 653d 77f5 8e3d 90fb d13d bf0b 0e3e
00000270: 6ce2 81bc 312e 5b3d b8b6 d03d 1807 653d
00000280: d5ae bbbc c23f 6cbd a3c5 ac3d 74e2 e13c
00000290: daeb b7bc b01b 803c 6174 46bd 862c 493d
000002a0: c62f 4e3d ab32 103d 3c4f 4fbd d880 863b
000002b0: 9fb4 da3c 880e 41ba fa35 40bd 0f69 533d
000002c0: cc47 b43c 6070 823c c83e cb3d a312 0abb
000002d0: c312 67bd da13 eabc f997 9abd 697e 523d
000002e0: e9f2 833c 97a3 433c 1116 d0bd 2841 813c
000002f0: 68b8 bbbd 29e5 e43d da0a 17be 1384 b3bb
00000300: e956 d0bd ccfc 763d 460a 143d 432c d2bc
00000310: 87c1 a43d 9f5b 20bd 346c c13d f160 063c
00000320: ec57 c6b6 4cbb 053c 1cba f3bd dcc8 fcbd
00000330: 9391 793d 2cfa 2f3c 6bf6 ecbd 7889 ac3d
00000340: 03b2 cd3b 34af 61bd 092d 4cbd eab6 943d
00000350: 4fb7 3e3d 1bf6 a13d d0ba 863d 62f5 88bd
00000360: ff52 5cbd 5f16 59bd a591 e53b 39b1 d23d
00000370: fcb5 973d c5b8 ca3c 443c ae3d 1452 c1bd
00000380: ada1 abbb 99fe 41bd 2dcd 1cbd e874 afbd
00000390: f69c 193d d013 1d3d 5722 983d 59d6 04be
000003a0: 1ed4 b43b cd61 a93d dbda c43d 26e9 5ebd
000003b0: d93e 99bd 38c8 80bd 1b79 ad3d 94c2 3c3d
000003c0: 81f9 073c 6f41 a03d 1cca a23c 630a 0fbd
000003d0: 571a 1dbc 9126 2cbd 8513 093d 819d 1abd
000003e0: d946 113c fd0f e7bd 7048 4dbd 074f 453c
000003f0: 6367 613d abce 81bd af9d 90bd fda1 a9bd

fc2.bias f4 [84]
0.2751727 -0.08414423 -0.015826521 0.1215609 0.010972581 0.083448924 0.08496526 0.21210867
0.19044447 0.118979886 -0.11205641 0.21034735 -0.01842531 0.085835785 0.1352059 0.15975249
0.0010082439 0.12951203 0.12254068 0.044766933 0.38147604 0.04716432 0.1685697 0.028535819
-0.06442111 0.23782851 0.028669778 -0.07208966 -0.13582842 -0.07318049 0.2519049 0.2567441
-0.030001655 0.06950432 -0.161479 -0.21250641 -0.094189055 -0.006174187 0.07664615 0.09931778
0.21725367 -0.078482494 -0.10189299 -0.08957328 0.015810637 -0.038170002 -0.016692013 0.045216978
-0.05276055 0.08996297 -0.010498872 0.065248564 0.040922385 0.17450415 0.05144293 -0.014590215
0.27804622 0.3443878 -0.0045347144 0.19744648 0.14940204 0.10374208 0.06091365 -0.016885981
-0.047627695 0.025149379 -0.053467136 0.029353034 0.0063482863 0.20127414 -0.10236063 0.28950703
-0.012003425 0.034529738 0.061103646 -0.11007645 -0.055014115 0.13041261 0.07404756 -0.0061206603
-0.0732041 -0.06471543 0.11876785 0.4056625
00000000: 70e3 8c3e cf53 acbd 9fa6 81bc ecf4 f83d
00000010: 57c6 333c 45e7 aa3d 4402 ae3d 0433 593e
00000020: e003 433e baab f33d d57d e5bd 4c65 573e
00000030: adf0 96bc acca af3d 6a73 0a3e 2896 233e
00000040: 0d27 843a cd9e 043e 9cf6 fa3d 885d 373d
00000050: d450 c33e 602f 413d 899d 2c3e f3c3 e93c
00000060: 37ef 83bd 5189 733e e2dc ea3c bea3 93bd
00000070: 9b16 0bbe a7df 95bd aef9 803e f673 833e
00000080: 08c6 f5bc 4858 8e3d c05a 25be 489b 59be
00000090: 31e6 c0bd d650 cabb a8f8 9c3d 1f67 cb3d
000000a0: bf77 5e3e 6ebb a0bd 46ad d0bd 3272 b7bd
000000b0: 4f85 813c 2658 1cbd b0bd 88bc 7035 393d
000000c0: 721b 58bd 813e b83d 7603 2cbc 0aa1 853d
000000d0: 3b9e 273d 37b1 323e d2b5 523d cc0b 6fbc
000000e0: 135c 8e3e 9953 b03e f197 94bb 692f 4a3e
000000f0: d9fc 183e ba76 d43d 9780 793d 7854 8abc
00000100: 4215 43bd 1206 ce3c 5b00 5bbd c675 f03c
00000110: 4905 d03b cf1a 4e3e 73a2 d1bd 443a 943e
00000120: 03aa 44bc 0e6f 0d3d d147 7a3d c36f e1bd
00000130: 7b56 61bd e28a 053e 3fa6 973d d28f c8bb
00000140: 08ec 95bd 8689 84bd 8f3c f33d ffb2 cf3e

fc3.weight f4 [10, 84]
-0.056766767 -0.015081082 -0.03606921 0.1147782 -0.1112346 0.14139664 -0.013905316 -0.2291296
0.18895318 0.15916657 0.009419649 0.075021274 0.06918736 -0.095297486 -0.1463375 -0.014795531
-0.027073255 0.19750436 -0.08837293 -0.07812583 -0.24074367 0.13518497 -0.032285504 0.19086574
0.065629855 -0.1351383 0.201167 -0.036625624 -0.08886829 -0.00741962 0.27203414 -0.026672026
-0.08234208 -0.042377774 0.15871787 0.19487219 -0.09348981 -0.12967026 0.18758453 0.086105414
-0.019771984 0.015207312 0.19122757 -0.10414316 -0.043106064 -0.06260981 0.09257016 0.029183531
0.010081351 -0.050781906 -0.13850938 0.23608884 -0.061192196 0.120449655 0.24254966 0.12548615
0.16213399 -0.20805962 0.09622379 0.008984041 0.1543477 0.036432765 -0.10035688 -0.078473136
-0.07842612 0.045809217 0.02995561 -0.14403945 0.10451372 0.2608003 -0.14448346 -0.24997623
0.049740873 0.3119657 -0.052969962 0.006602499 0.1152784 0.0405052 -0.11075684 0.1383637
0.0005287066 -0.020496799 0.18118519 -0.27441227 0.01616619 0.29147345 0.12424776 -0.2124878
-0.09033184 0.009881392 0.02396076 0.097774945 0.14860764 0.12764682 0.23795328 -0.11139937
-0.06517405 -0.045674674 0.14115533 -0.06724464 -0.050370116 -0.003445432 0.15307975 -0.20581205
-0.15304476 0.1879224 -0.26544693 0.15501419 -0.08762014 -0.12581554 -0.09388109 0.09756966
0.11211281 -0.04250755 -0.09007796 -0.14902468 0.10238691 0.2745476 0.19061111 0.23133153
0.17311238 0.11086573 -0.08557682 0.06835381 -0.058619417 0.088754565 0.007796707 -0.014328145
-0.22386977 0.07812653 -0.0015983508 0.1660192 0.123525985 -0.055694845 -0.11312451 -0.11059949
0.002046411 -0.21448193 -0.13744351 -0.2823642 -0.17080165 -0.24984995 0.07182885 -0.23489943
0.12580714 -0.085477814 0.29611647 -0.05128267 -0.24781005 -0.018096693 0.059823588 -0.09573269
0.064701475 0.252716 0.11884838 -0.3699257 -0.10359217 -0.09673203 -0.046286337 0.02561202
0.0050400374 -0.055006243 -0.11890486 -0.104848385 -0.032212827 -0.00033278024 0.036834028 -0.20474604
0.17587322 0.09623125 0.06656479 0.03757152 -0.12686786 0.03874918 -0.048476767 0.025929758
-0.18178526 -0.053465847 -0.15211406 0.18684202 0.08540966 -0.19614366 0.019455938 0.101808615
-0.1646789 0.038226437 -0.11606855 -0.007354064 0.14449619 -0.061390765 0.18246381 -0.059443723
-0.09446851 -0.057089075 0.09445064 0.0007853906 0.0284806 -0.038138073 0.042899743 0.19449167
0.06500134 -0.056781515 -0.18494505 0.002038755 -0.02584946 0.14290412 0.22721319 -0.0025157093
0.02027146 0.099042565 -0.05820053 0.03589216 -0.08815445 0.012594563 -0.1301351 -0.19799548
0.112054236 0.11785779 -0.08426688 0.055486552 -0.13859932 -0.066522785 0.28655085 -0.0040329224
0.24404296 0.25970268 -0.016089538 -0.036253195 0.10955937 0.3005432 -0.15209426 -0.2147002
-0.017177664 0.14093247 -0.088978924 -0.20841026 0.0887919 -0.018485228 -0.014798061 0.12810937
-0.056011748 0.21395627 0.015942791 0.11799158 0.1339528 0.15931278 0.2038732 -0.11038878
0.007826982 -0.087072015 -0.024267653 0.14147945 -0.11471131 -0.050449573 -0.13726489 0.21733782
00000000: 4584 68bd a416 77bc 4fbd 13bd d510 eb3d
00000010: f7ce e3bd 48ca 103e 1fd3 63bc f3a0 6abe
00000020: f17c 413e 90fc 223e df54 1a3c c1a4 993d
00000030: 1ab2 8d3d 542b c3bd 7fd9 15be f468 72bc
00000040: bbc8 ddbc 953e 4a3e defc b4bd 6f00 a0bd
00000050: 8285 76be ee6d 0a3e ce3d 04bd 4f72 433e
00000060: f268 863d b261 0abe b9fe 4d3e c004 16bd
00000070: 9400 b6bd 4920 f3bb 0f48 8b3e 4b7f dabc
00000080: f7a2 a8bd 5194 2dbd f086 223e 938c 473e
00000090: 9677 bfbd 48c8 04be 2916 403e 0958 b03d
000000a0: dbf8 a1bc 1728 793c 29d1 433e 0249 d5bd
000000b0: fc8f 30bd 9239 80bd 6d95 bd3d 4d12 ef3c
000000c0: 402c 253c b000 50bd 67d5 0dbe 46c1 713e
000000d0: aba4 7abd 4fae f63d f05e 783e 717f 003e
000000e0: 7406 263e 950d 55be fa10 c53d cd31 133c
000000f0: 530d 1e3e 863a 153d e887 cdbd 86b6 a0bd
00000100: e09d a0bd 72a2 3b3d 7865 f53c 147f 13be
00000110: 4a0b d63d 9e87 853e 79f3 13be c5f9 7fbe
00000120: 16bd 4b3d f8b9 9f3e 08f7 58bd c759 d83b
00000130: 1517 ec3d c8e8 253d 7bd4 e2bd 37af 0d3e
00000140: e698 0a3a e7e8 a7bc 9c88 393e c47f 8cbe
00000150: f56e 843c 023c 953e 9c75 fe3d 6796 59be
00000160: e6ff b8bd 90e5 213c 5b49 c43c 3b3e c83d
00000170: 9a2c 183e d9b5 023e 06aa 733e 5a25 e4bd
00000180: f979 85bd 5e15 3bbd 068b 103e 8fb7 89bd
00000190: e550 4ebd c2cc 61bb f0c0 1c3e 65c0 52be
000001a0: c4b7 1cbe bb6e 403e a9e8 87be 0abc 1e3e
000001b0: 3072 b3bd cad5 00be bb44 c0bd 9ad2 c73d
000001c0: 679b e53d 661c 2ebd cb7a b8bd ed99 18be
000001d0: 3ab0 d13d 8191 8c3e 8f2f 433e 2ce2 6c3e
000001e0: 5f44 313e 920d e33d e642 afbd 15fd 8b3d
000001f0: ea1a 70bd f4c4 b53d 857b ff3b 99c0 6abc
00000200: 1e3e 65be cd00 a03d c17f d1ba f000 2a3e
00000210: 31fb fc3d 4720 64bd d3ad e7bd fc81 e2bd
00000220: 141d 063b 27a1 5bbe febd 0cbe 0a92 90be
00000230: a1e6 2ebe aad8 7fbe 011b 933d 7a89 70be
00000240: 96d3 003e fe0e afbd 949c 973e c70d 52bd
00000250: ebc1 7dbe 843f 94bc 9409 753d 800f c4bd
00000260: 3582 843d fe63 813e c866 f33d e766 bdbe
00000270: 2228 d4bd 711b c6bd be96 3dbd 4dd0 d13c
00000280: e626 a53b 3a4e 61bd 6484 f3bd c0ba d6bd
00000290: 99f1 03bd 0279 aeb9 47df 163d f2a8 51be
000002a0: 1c18 343e e414 c53d 1f53 883d 98e4 193d
000002b0: a6e9 01be 76b7 1e3d 938f 46bd a56a d43c
000002c0: ea25 3abe 01ff 5abd cac3 1bbe 8453 3f3e
000002d0: 43eb ae3d e2d9 48be 0f62 9f3c 0981 d03d
000002e0: 96a1 28be 5393 1c3d 59b5 edbd 5cfa f0bb
000002f0: cff6 133e e274 7bbd cbd7 3a3e 437b 73bd
00000300: b578 c1bd 3cd6 69bd 566f c13d ace2 4d3a
00000310: 2650 e93c ab36 1cbd a4b7 2f3d d328 473e
00000320: 6c1f 853d bc93 68bd 3c62 3dbe a29c 053b
00000330: 3fc2 d3bc 7555 123e 93aa 683e 99de 24bb
00000340: 5510 a63c d4d6 ca3d ae63 6ebd a803 133d
00000350: 528a b4bd 6d59 4e3c 2342 05be 54bf 4abe
00000360: b17c e53d 6d5f f13d 1d94 acbd de45 633d
00000370: fbec 0dbe 193d 88bd cbb6 923e 9b26 84bb
00000380: 66e6 793e c0f7 843e 35ce 83bc 3b7e 14bd
00000390: aa60 e03d cce0 993e 99be 1bbe 5fda 5bbe
000003a0: 2cb8 8cbc 9a50 103e 953a b6bd 8069 55be
000003b0: 87d8 b53d 556e 97bc 9173 72bc 1a2f 033e
000003c0: 936c 65bd 5a17 5b3e 759a 823c 92a5 f13d
000003d0: ec2a 093e e422 233e 23c4 503e 8313 e2bd
000003e0: be3c 003c d052 b2bd f5cc c6bc fddf 103e
000003f0: c3ed eabd 36a4 4ebd 2b8f 0cbe ce8d 5e3e

fc3.bias f4 [10]
-0.12037916 -0.35723636 0.07979843 0.22182208 0.45311436 -0.17641245 0.05020281 -0.25872087
0.38779563 -0.30268964
00000000: 5989 f6bd afe7 b6be 5c6d a33d 5425 633e
00000010: 9bfe e73e 77a5 34be 76a1 4d3d 1077 84be
00000020: 268d c63e 23fa 9abe
